Health-Care-Chatbot-main/TrainingData.pth (torch, 69434 bytes, 6 tensors)

l1.weight f4 [8, 1042]
000000 dd 89 14 3f b9 72 42 bf 96 1f 5c 3f b1 6b d9 3f
       0.5802286 -0.759563 0.85985696 1.698599
000010 d3 b6 da 3f 78 ed 3b 40 db bd df 3b c7 67 16 bf
       1.7087044 2.936369 0.0068280525 -0.587521
000020 3c 34 b1 3f da 3b 7e bf df 75 a6 bf 30 0c 79 3c
       1.3844066 -0.99310076 -1.3004721 0.01520066
000030 46 77 af 3f e4 12 35 40 08 fe 18 40 d4 a9 14 40
       1.3708274 2.829278 2.3905048 2.3228655
000040 5c 2a b3 40 25 c1 09 c0 07 d5 6a 3f c4 9a d6 3e
       5.598921 -2.1524136 0.91731304 0.41914952
000050 ff 9a 91 bf 42 0c 0f 3e d9 2c b4 bb d6 79 2c bf
       -1.1375426 0.1396952 -0.0054985103 -0.67373407
000060 a8 00 06 be 05 79 4f 3f 33 c2 b3 be e7 4d fa 3e
       -0.13086188 0.81044036 -0.351091 0.4888756
000070 d7 26 3c 40 cf fc 22 3f 55 c8 15 40 87 55 4c 40
       2.9398706 0.63667005 2.3403523 3.1927202
000080 40 e5 54 be df 6a 09 40 37 8c 31 40 91 1a e0 3e
       -0.20790577 2.147148 2.774183 0.4377027
000090 30 e9 32 40 3c 1e 78 3c 5c 5b 4d c0 a3 a1 04 bf
       2.7954826 0.015143927 -3.2087011 -0.5180914
0000a0 a1 97 23 3f 08 42 0b bd ef 9a b8 3e be 55 41 3f
       0.6390324 -0.03399852 0.36055705 0.7552146
0000b0 87 43 a0 3f ac c1 f8 3e 98 0b cf 3e 9d d7 81 bf
       1.2520608 0.4858526 0.40438533 -1.0143925
0000c0 7b cc 0a bf 44 d5 ff bf 97 4e 42 40 38 0c 3a 40
       -0.5421826 -1.9986959 3.0360467 2.9069958
0000d0 84 b0 6f 40 94 42 6e 40 62 80 2b 3f 70 e7 e7 3f
       3.7451487 3.7228136 0.6699277 1.8117504
0000e0 62 05 d7 3f a8 bf 1b 40 b1 9d c8 3e 24 00 fc 3e
       1.6798518 2.4335728 0.3918281 0.49218857
0000f0 ec fb bc be 3b 5d b6 3d 92 66 1e bf 67 b1 84 40
       -0.3691095 0.08904501 -0.6187526 4.1466556
000100 67 d5 b2 3f de f1 08 40 6f e1 e6 bc 04 39 a9 bd
       1.3971375 2.1397624 -0.028183667 -0.08262828
000110 99 46 ac 3f f0 f5 50 bf 00 6d 4a 40 e8 a7 70 3f
       1.3459045 -0.8162527 3.1629028 0.94006205
000120 46 dc 88 bf 8b 20 c7 be 24 66 28 3f 8b 6f 3e 3f
       -1.0692222 -0.38892016 0.65780854 0.7438895
000130 e9 c3 14 3f f6 89 64 40 a4 5d 97 40 2c 1d 7c bf
       0.58111435 3.5709205 4.7301807 -0.9848201
000140 32 81 34 3d 6c d2 e5 3f 68 29 52 3e 91 fb 47 bc
       0.044068523 1.7954841 0.20523608 -0.012205974
000150 47 41 28 3e a6 ad 7c 3f 6d 82 45 40 0b 73 bb 3f
       0.16431151 0.98702466 3.0860856 1.4644483
000160 fd 5e 11 40 3a eb a2 3f c5 6e eb bf 25 30 30 3f
       2.2714226 1.2728035 -1.8393179 0.6882346
000170 02 2e 0d 3f bd 2a ec 3e 65 f5 16 40 ec 85 4c 3f
       0.5514833 0.46126357 2.3587277 0.7989185
000180 ae cd 7c 40 7f bb 44 3f 7c 4b 9d 3f 54 45 ad 3e
       3.9500537 0.76848596 1.2288661 0.33841956
000190 e0 f8 8c 3d 13 7b b4 bf b5 01 92 3f ca f7 2f 40
       0.06883407 -1.4100059 1.1406771 2.7494988
0001a0 53 9d 48 40 fc c7 86 40 e6 64 0f 3f ea cc 64 3f
       3.1346023 4.211912 0.56013334 0.89375174
0001b0 31 f6 ad 40 77 02 0f 3e 36 32 51 40 ab 36 17 40
       5.4363027 0.13965784 3.2686896 2.3627117
0001c0 37 75 a5 40 61 aa 2b 40 98 c5 23 c0 02 8b 1d c0
       5.1705585 2.682274 -2.5589352 -2.4616094
0001d0 67 20 51 3e 1b ab 05 40 32 66 5c bf 27 34 27 40
       0.20422517 2.0885684 -0.8609344 2.6125581
0001e0 a2 10 14 40 a8 3e fa 3d 05 33 81 3f 11 fe 0b bf
       2.3135152 0.12218982 1.0093695 -0.5468455
0001f0 1d a1 a3 bd 5e 7b 29 40 ac ec 62 3f d5 9b 06 3d
       -0.07989714 2.6481547 0.8864238 0.032863457
000200 e5 fd b4 bf b1 67 91 3f 99 0f 82 3f 92 d7 5f 3f
       -1.4139982 1.1359769 1.016101 0.8743831
000210 42 46 6c 3f 1c 63 d5 3c f0 f4 61 3f 11 7c e8 3e
       0.92294705 0.026048236 0.8826437 0.45407155
000220 84 95 ee 3f 88 b8 05 c0 e4 7a 13 40 4f b0 04 bf
       1.8639379 -2.089388 2.3043756 -0.51831526
000230 7a 8d a4 3f f5 cc c7 bf 45 fd 7d 3d 96 46 da bd
       1.2855675 -1.5609423 0.062009115 -0.106579944
000240 0c 9b f4 be e4 ea 55 40 19 ba b8 be 4b fc c4 bf
       -0.4777454 3.3424616 -0.3607948 -1.5389494
000250 9d f0 37 40 f6 39 b7 3f 15 eb 85 3f 74 03 47 bf
       2.8740609 1.4314563 1.0462366 -0.77739644
000260 43 fc c5 bd ec f1 c7 be d6 f0 85 3d ea 13 02 40
       -0.09667256 -0.3905176 0.065400764 2.0324655
000270 8e 76 e9 3e 7d 1b 95 3e d4 82 ed be 73 41 97 3f
       0.45598263 0.29122534 -0.46388876 1.1816849
000280 91 14 85 3f 5c 15 55 40 c4 4a 8d 3f 6f 10 d0 bc
       1.0396901 3.3294287 1.1038442 -0.025398461
000290 9e d8 af be 45 1e 42 40 5c 85 98 3f 31 c0 3a 40
       -0.34344953 3.0330975 1.1915698 2.9179804
0002a0 5c 88 6f 40 f3 3d 7b 40 46 ae e5 3d fc 68 d6 3f
       3.7426977 3.925656 0.11214881 1.6750789
0002b0 de 38 95 be ad b1 21 3f 9c 85 56 3f 98 a9 94 bf
       -0.2914495 0.63161737 0.8379762 -1.1614256
0002c0 6c fb 90 40 16 d1 a6 bf 3d b1 a5 3f 7a 27 b4 be
       4.530691 -1.3032558 1.2944714 -0.35186368
0002d0 31 6a 9c 3f bb 49 96 3e c8 08 fe 3f ed e2 db bd
       1.2219907 0.29353127 1.984643 -0.10736642
0002e0 1c 5b 96 3f 22 95 e5 3f c6 69 ae 3f 11 ca 63 3f
       1.1746554 1.7936137 1.362603 0.88980204
0002f0 bb 1c 86 3f 1b ce d8 3f 75 94 88 3f 3d 34 c5 3f
       1.0477518 1.6937898 1.0670305 1.5406567
000300 54 d5 20 40 75 b2 81 3f 45 d3 47 3f cc e4 8e be
       2.5130205 1.0132586 0.78056747 -0.27908933
000310 bf 00 9b 40 90 08 56 3c ed 1c 74 3f 7d cd e5 3f
       4.843841 0.013063565 0.9535664 1.7953335
000320 c3 91 21 40 4b 79 14 40 ab 36 ad be f1 73 18 3f
       2.5245216 2.3199031 -0.3383077 0.5955191
000330 5e 0f 8c be bd 65 32 bf 34 c5 00 3e c1 c2 c3 3f
       -0.27355474 -0.6968649 0.12575227 1.5293809
000340 0f 4c 67 3f 72 d8 d1 3e 72 b5 59 40 ed 7b 17 40
       0.9035043 0.40985447 3.4016995 2.3669388
000350 a0 5f 25 3f 84 83 de be 90 48 81 3f e6 39 c9 bf
       0.6459904 -0.43459713 1.0100269 -1.5720794
000360 8f a2 7a 3f 18 01 9b be 5c bf 4a be b3 2c 69 3d
       0.97904295 -0.30274272 -0.1979956 0.056927394
000370 29 06 1e 40 62 fe 78 bf ab c1 b4 3c 1f db a7 3f
       2.469126 -0.9726316 0.022065004 1.3113745
000380 2a a8 53 40 b5 9b 03 3f 05 d3 5d bf 9a fe 1d 40
       3.307139 0.51409465 -0.86650115 2.4686646
000390 28 ec 1d 3d a0 ce 37 c0 31 6e ab 3f fc 0d de 3d
       0.038555294 -2.8719864 1.3393003 0.10842511
0003a0 e4 d5 96 be bf fe a0 3e d9 fe 97 3b f7 08 95 40
       -0.2946006 0.31444356 0.0046385345 4.6573443
0003b0 a3 08 c1 3e 6b cf e9 be e0 61 77 be 1b c4 32 3f
       0.37701902 -0.4566606 -0.2415843 0.69830483
0003c0 f2 e9 32 40 62 1f 1d 3f 2c bb 21 c0 ed fe ad 3f
       2.795529 0.6137601 -2.527049 1.3593422
0003d0 c7 88 ab 3f 9f 1a 9e 3f 99 3a 82 bc 6e 48 31 bf
       1.3401116 1.2351874 -0.015897082 -0.69251144
0003e0 2b ab 21 bf 22 9a 9d be 8e 99 75 3f 0e b1 a2 c0
       -0.63151807 -0.30781657 0.9593743 -5.084113
0003f0 40 b3 5f bf 07 6c 98 3e 96 2f 70 3f a2 a0 15 3f
       -0.8738289 0.29769918 0.9382261 0.5844823

l1.bias f4 [8]
000000 1e a5 2f 3f 1b 4c af 3c 34 89 ee 3e fd 1b f2 3e
       0.68611324 0.021398595 0.46589053 0.47286978
000010 ad 82 ca 3e 4e 26 41 3f 25 98 68 3f 29 42 80 3f
       0.39552823 0.75449073 0.90857154 1.002019

l2.weight f4 [8, 8]
000000 1c 94 c1 3f d9 47 09 bf 5a c7 ce bf ad 14 8c be
       1.5123324 -0.53625256 -1.6154587 -0.27359524
000010 af bb c1 3f 69 cc fb 3f 55 25 d7 bf b6 3f f8 3f
       1.5135401 1.9671756 -1.6808268 1.9394443
000020 f6 88 3b 40 b0 be 3e 3f db 11 96 40 ae 2b b0 3f
       2.9302344 0.74509716 4.6896796 1.376333
000030 c1 85 4a c0 0c e7 14 3f 16 c5 fd bf 19 2e de bf
       -3.1644137 0.5816505 -1.9825771 -1.7357818
000040 3f a4 a6 3f c4 c3 b4 3f b8 79 b7 3f f9 74 65 c0
       1.3018874 1.4122243 1.4334021 -3.5852644
000050 e6 e4 f4 3f a7 c4 1e 40 38 14 8f bf 91 a3 9f 3f
       1.9132354 2.4807527 -1.1178045 1.2471792
000060 03 4f 0c 40 90 5d 76 3e 89 5a f9 bf ce 58 62 40
       2.1923225 0.24059129 -1.9480754 3.5366702
000070 8d 2c 74 3f ea 28 fa 3f 32 16 2a 3b 12 71 26 c0
       0.9538048 1.9543736 0.002595317 -2.6006513
000080 3a c1 1e 3f d8 92 97 40 f8 ce 24 bf 6a 64 f8 be
       0.6201359 4.7366753 -0.6437831 -0.4851411
000090 b5 e8 f9 bf 6d a5 3d bf ed 65 44 40 62 38 83 bf
       -1.9524142 -0.74080545 3.068721 -1.0251582
0000a0 bc 70 9a bf 39 6e f8 be 76 bb f5 bf 83 37 a1 3e
       -1.2065654 -0.48521593 -1.9197834 0.31487665
0000b0 93 ce 70 c0 bc da 66 40 08 34 03 40 9b 0e 33 40
       -3.7626083 3.6071005 2.0500507 2.7977664
0000c0 55 da 81 c0 1f dd 18 3f dd a1 26 40 14 e3 65 40
       -4.057902 0.59712404 2.6036294 3.5919847
0000d0 7c 89 97 40 96 da aa 3f 76 55 72 bf 7a 25 a6 3f
       4.7355328 1.3347957 -0.94661653 1.2980187
0000e0 1c 11 16 40 01 89 fa bf 94 ba e8 3f 1d 47 27 3f
       2.3447943 -1.957306 1.8181939 0.65342885
0000f0 e1 7d 1e 3f 9e d9 8d bf f0 2a 19 3f 66 ad 2d 40
       0.61910826 -1.1082036 0.5983114 2.7137084

l2.bias f4 [8]
000000 e4 0e 43 3e 82 8c a3 3f 5e c6 92 bf 94 7a ce bf
       0.19048649 1.2777255 -1.1466787 -1.6131158
000010 a1 3c b0 3b 75 5a d2 3f 4e b6 a0 bf 61 e6 60 3e
       0.0053783213 1.6433855 -1.2555635 0.21962883

l3.weight f4 [261, 8]
000000 8b 08 c4 c0 1e b1 b7 c0 c1 06 a0 c0 1d d9 50 3f
       -6.126043 -5.7403708 -5.0008245 0.8158129
000010 f0 4c 39 c0 0b 92 44 be 3c aa 71 3e 2c eb bd 3e
       -2.895321 -0.19196336 0.23600096 0.37093484
000020 c0 e9 be bd a2 c9 11 bf b3 36 aa 3e 84 c0 aa bf
       -0.09321928 -0.5694829 0.33244857 -1.3340001
000030 b9 72 ea bf 39 f2 ef be 4d e6 b9 bd 99 e4 de be
       -1.831626 -0.4686449 -0.090771295 -0.4353378
000040 9c a9 5a bf a7 f2 d8 3d c4 f4 35 3f d4 56 a3 c0
       -0.85415053 0.10593157 0.7107661 -5.104349
000050 02 07 ec 3c 18 c3 10 c0 51 93 17 bf 83 e8 85 bf
       0.028811935 -2.2619076 -0.5920916 -1.0461582
000060 80 62 0b c0 9e a5 fc 3e 96 5a 74 be 11 ef 21 bf
       -2.177887 0.49345106 -0.23862681 -0.6325541
000070 c1 c4 fc c0 e7 62 66 c0 9e 3d a8 3f 0a da 70 c0
       -7.899018 -3.5997865 1.3143804 -3.763308
000080 11 be a3 c0 75 56 69 3f fd 09 58 bf 37 9a 98 bf
       -5.1169515 0.9114755 -0.8439024 -1.1922063
000090 62 82 f5 bf 79 a9 ce c0 19 13 ac 3f b7 1b 7f c0
       -1.9180415 -6.4581876 1.3443328 -3.9860666
0000a0 50 40 1b bd ed 66 1a bf ac 72 03 bf 48 28 af be
       -0.03790313 -0.603133 -0.5134685 -0.3421042
0000b0 34 76 77 bf 9e 4d e5 bf a2 6f 46 bf dd bf 8c 3e
       -0.9666474 -1.7914312 -0.7751409 0.2749013
0000c0 cd d9 fd bf 38 9a f2 be f2 7f e9 bf d9 0d 9a 3f
       -1.9832093 -0.47383285 -1.8242171 1.2035476
0000d0 f4 bb be 3e 94 88 a1 c0 60 ef f1 c0 1a 22 2a bf
       0.37252772 -5.047922 -7.5604706 -0.66458285
0000e0 25 7b ee 3e 0a ea ba bf 5c 53 a2 bf 0b b6 b9 bf
       0.46578327 -1.4602673 -1.2681689 -1.450868
0000f0 ff e6 0c c1 df 33 a6 c0 56 ff 4c 3f 46 df 6b 3e
       -8.806396 -5.193832 0.8007711 0.23034391
000100 ef 11 3c c0 28 fc 1b c0 8a b9 03 c0 11 8b e1 bf
       -2.9385946 -2.4372654 -2.0581994 -1.7620565
000110 18 13 68 bf c8 6a d4 c0 01 31 9d 3f d1 cf 13 3f
       -0.90654135 -6.638035 1.228058 0.5773898
000120 d5 95 7f c0 43 fd d9 3e 33 d3 7e 3f 34 da 59 c1
       -3.99352 0.42576036 0.99541014 -13.615772
000130 81 25 29 be 48 91 ab bf 80 9d ae c0 f0 dc c0 be
       -0.16518213 -1.3403711 -5.456726 -0.37668562
000140 32 4f 9e bf ce b0 78 3f 79 2b b9 bf 98 f4 85 bc
       -1.2367918 0.9714478 -1.4466392 -0.016351983
000150 9d ae 32 c1 1c 0c f1 bd 79 0c 8c bf ea a4 6d bf
       -11.16763 -0.11769888 -1.0941306 -0.92829764
000160 70 72 74 c0 f9 c1 7a 3f f4 4f 12 c0 c6 67 cd 3e
       -3.8194847 0.9795223 -2.28613 0.40118235
000170 74 3b 92 bf ba a1 85 bf 5d 25 e9 be 24 23 02 c0
       -1.1424394 -1.043998 -0.45536318 -2.0333948
000180 78 3b f3 bf 07 bc 5f 3f 82 cf 21 be 83 b6 a5 c0
       -1.9002523 0.8739628 -0.15801814 -5.1785293
000190 8c ed 32 c0 75 3f e0 3d 57 a0 34 c1 6a 9f 2c 3f
       -2.7957487 0.109496035 -11.289145 0.67430747
0001a0 c1 95 31 c1 12 21 96 3f 08 41 1a 3f 87 51 e2 c0
       -11.099061 1.1728842 0.6025548 -7.072452
0001b0 49 3a 50 bf bf e0 1b c0 15 b4 24 c1 cb f2 85 3e
       -0.81338936 -2.4355924 -10.293965 0.261618
0001c0 9a 5d 31 bf 0b f6 49 3f cc f8 dc be 15 75 51 3f
       -0.6928345 0.78891057 -0.43158567 0.8181928
0001d0 95 56 f8 bf eb af 35 c0 1f 81 bd bf 06 c7 c9 bf
       -1.9401423 -2.8388622 -1.480503 -1.5763862
0001e0 f2 7a 0b c0 d1 33 6e 3f 14 d3 76 bf 80 3f f0 3e
       -2.179379 0.93047816 -0.9641583 0.46923447
0001f0 82 e5 52 bf 5f c0 5b c1 83 01 79 bf a4 c7 ca bf
       -0.8238145 -13.734466 -0.9726793 -1.5842175
000200 88 b3 7b 3f b1 53 a3 be 39 88 4f 3f 10 fc b3 c0
       0.9832082 -0.3189979 0.81067234 -5.6245193
000210 a5 f9 e3 bf f2 f6 76 c0 62 c4 de 3d 9e 0a 10 bf
       -1.781056 -3.8588223 0.10877301 -0.562662
000220 16 e3 ee bf 75 8e 81 bd ff d7 20 3f 41 af 01 c0
       -1.8663051 -0.06326 0.62829584 -2.0263216
000230 e4 e7 d5 be ee 6c 16 c1 15 41 8b 3d 70 78 1a bf
       -0.4177848 -9.401594 0.06799523 -0.60340023
000240 7c 3b 33 bf 37 9b b2 c0 83 a1 db bf 8b fe ba 3e
       -0.7001264 -5.581447 -1.7158664 0.36522326
000250 2c f0 08 c0 2e bb a7 3f 44 dd 29 c0 77 0b 38 3d
       -2.139659 1.3103998 -2.65413 0.04493281
000260 d1 07 25 c0 99 7c 84 bf f7 1b dd bf 60 64 e3 be
       -2.578602 -1.0350524 -1.7274159 -0.44412518
000270 b1 77 a1 bf fd 29 57 3f 3a 3b 1d c0 a8 d8 27 3f
       -1.2614652 0.84048444 -2.45674 0.65564966
000280 b6 72 1d bf a8 72 ed 3d 18 35 b2 3e f0 91 7d bf
       -0.6150316 0.115941346 0.34806132 -0.9905081
000290 09 f3 fc be 5d 10 1c bf 6b 16 9a bf 69 8d d7 bf
       -0.4940417 -0.6096247 -1.2038091 -1.684003
0002a0 95 5f 86 c0 7d 4a 25 3f 29 76 e6 3f ea 6e 64 c0
       -4.1991677 0.64566785 1.800481 -3.5692697
0002b0 65 87 56 3e 89 27 46 c0 c3 ce f9 bf af 58 8f c0
       0.20950086 -3.096163 -1.9516224 -4.4795756
0002c0 5f 2b a7 3e b5 91 4c 3f 4a b5 9a 3f 3d 56 bd c0
       0.32650277 0.7990983 1.2086575 -5.916777
0002d0 24 f1 d2 c0 73 30 bb c0 dd 02 0a c1 e0 5f 7f 3e
       -6.591936 -5.849664 -8.625699 0.24938917
0002e0 3f a3 78 c0 ea ce 21 3f b9 f1 a0 3d b8 90 32 c1
       -3.8849638 0.6320635 0.07858605 -11.160332
0002f0 f9 e9 02 c0 ba 99 3e c1 1a 09 d0 c0 8e 4e bf 3f
       -2.0455306 -11.912531 -6.501111 1.4945848
000300 63 e5 57 3f 3e 63 1e 3f fa c8 cc 3f 95 83 fb bf
       0.8433439 0.6187018 1.5998833 -1.9649531
000310 dd 7e 30 c0 ef 7d c3 bf bb cb dc c0 63 d0 ac bf
       -2.7577431 -1.5272807 -6.8998694 -1.3501095
000320 b4 2d 81 bf 0f d0 eb 3e a8 47 6a 3f 18 fe 26 c0
       -1.0092072 0.46057174 0.9151559 -2.6092587
000330 22 97 df be f5 3d a6 c0 b5 84 05 c0 28 24 23 bf
       -0.43669993 -5.195063 -2.0862248 -0.63727045
000340 e0 eb cc 3e e4 c4 63 3d 98 5b 57 3e a1 3f 15 3f
       0.40023708 0.05560769 0.21031034 0.58300215
000350 8d 15 99 bf c3 f8 a4 c0 84 7d 23 c1 09 20 3d bf
       -1.1959702 -5.1553664 -10.218143 -0.73877007
000360 39 d6 16 c0 6a 81 c1 be e5 c6 1b 3f b0 98 6d be
       -2.356825 -0.37794048 0.60850364 -0.23202777
000370 45 c4 67 3c fc ff 16 c1 26 c5 5c c0 32 2a d4 3b
       0.014145915 -9.437496 -3.449533 0.0064747566
000380 1e 96 0b be e2 5b f4 c0 a4 17 b2 3d 10 7c 30 c1
       -0.13631484 -7.636216 0.08695915 -11.030289
000390 c6 d9 eb bf f5 39 5c 3f 50 b0 7b bf 30 94 67 3e
       -1.8425834 0.86025935 -0.98315907 0.22615123
0003a0 69 6c 12 c0 23 94 62 c0 59 c5 b7 3e 75 c3 3c c1
       -2.2878668 -3.5402915 0.35892752 -11.797719
0003b0 e1 25 eb be 68 fe b9 3f 41 69 41 3d c6 62 51 c0
       -0.45927337 1.4530764 0.04721952 -3.2716537
0003c0 a1 37 36 be 23 b8 99 bf 39 26 55 c0 61 59 27 c1
       -0.17794658 -1.2009319 -3.330458 -10.459321
0003d0 ee 75 26 c0 7e a9 93 3e ee be ca c0 65 95 02 40
       -2.6009479 0.2884025 -6.335807 2.0403683
0003e0 74 44 9a c1 b1 32 cc 3d 92 39 3e 3f 21 9b 74 c0
       -19.283424 0.09970606 0.74306595 -3.8219683
0003f0 35 75 55 3e a3 76 94 bf 3e b1 80 c0 b5 a2 b3 3e
       0.20845492 -1.1598705 -4.021636 0.35085073

l3.bias f4 [261]
000000 d4 e2 b6 be 98 75 96 bd c2 df 86 bf 89 e0 bd 3e
       -0.3571993 -0.07346648 -1.0537035 0.3708537
000010 a4 f6 6c bf 04 2f b8 3d f7 cc 80 c0 ae fe c3 bf
       -0.92563844 0.089933425 -4.02502 -1.5312097
000020 b9 c5 a1 c0 8f 5c 20 c0 fc 76 8f bf 9a 60 65 c0
       -5.055386 -2.5056493 -1.1208186 -3.584021
000030 60 eb 0e c0 dd cd cd bf a1 cf 39 c0 23 3c da bf
       -2.2331161 -1.607845 -2.9032977 -1.7049602
000040 b5 44 2b bf 53 65 d0 bf 3b 44 f1 c0 b4 8b 0d c1
       -0.66901714 -1.6280922 -7.539579 -8.846607
000050 d9 00 03 be 97 c3 28 c0 78 ec 14 c0 fc e0 26 c0
       -0.12793292 -2.6369379 -2.326933 -2.607482
000060 f7 43 48 c0 52 8a 99 bf cf 7e d7 bf 52 ac 10 bf
       -3.1291482 -1.1995337 -1.6835574 -0.5651294
000070 9c 77 3b 3e e9 ac 86 c0 98 66 d7 c0 5d 13 20 c0
       0.18307346 -4.208607 -6.7312737 -2.5011818
000080 c6 e1 33 bf 06 b0 d9 be 41 4c 99 3e 0d 38 a4 bf
       -0.7026638 -0.42517108 0.2994099 -1.2829605
000090 df 97 64 bf d2 60 25 3f 88 91 9d 3e b2 07 54 3f
       -0.89294237 0.6460086 0.30775094 0.8282424
0000a0 fc 04 bb bf 64 3d 2e 3f d8 b2 61 3e da b0 3f c0
       -1.4610896 0.68062425 0.2204088 -2.9951692
0000b0 7e db c0 bf 0a 1c 0b c0 27 51 46 c0 25 64 d8 c0
       -1.5066984 -2.1735864 -3.0987031 -6.7622247
0000c0 b5 a2 03 40 b2 b2 0b 3e 37 25 4b 3f 14 44 5f c0
       2.0568058 0.13642386 0.7935366 -3.4885302
0000d0 92 81 02 3f 0a 28 92 c0 02 0c 2f 3f 3b e1 ec bc
       0.5097896 -4.5673876 0.683777 -0.028915992
0000e0 09 a5 8e bf 07 3e 6c 3f 82 f9 b0 bf aa ff 88 3e
       -1.1144115 0.92282146 -1.3826144 0.26757556
0000f0 7b 52 40 3f e9 83 72 bf f5 d9 df c0 17 4b 0a c0
       0.75125855 -0.9473253 -6.995356 -2.1608331
000100 c9 16 a6 c0 2f 1a 7c c0 c9 f7 8d c0 16 15 62 c0
       -5.1902814 -3.9390981 -4.436497 -3.532537
000110 41 65 df bf a3 85 19 c0 a7 e7 85 bf c9 c7 ef bf
       -1.7452775 -2.3987815 -1.046132 -1.8732845
000120 8c 33 94 3e c0 ab 29 c0 5c 9a 94 c0 64 a5 9d c0
       0.28945577 -2.6511078 -4.6438427 -4.9264393
000130 99 c6 ab bf 87 23 21 bf cc f8 2d c0 24 92 35 c0
       -1.3419982 -0.62944835 -2.7183104 -2.8370447
000140 e9 e4 26 c0 89 1a 9b c0 05 a7 8e be c0 17 17 c0
       -2.6077216 -4.846989 -0.278618 -2.3608246
000150 6b 1a 32 3f db 54 0b c0 78 51 92 c0 b7 c8 37 bf
       0.6957156 -2.1770542 -4.572445 -0.7179064
000160 94 70 bf bf 10 cf 34 c0 ea 37 84 c0 70 22 38 c0
       -1.4956231 -2.825138 -4.1318254 -2.877102
000170 41 41 41 c0 9d cf ae c0 d5 39 0a c0 29 a5 8b c0
       -3.0196078 -5.4628434 -2.1597798 -4.363911
000180 eb 6c 38 c0 83 02 4c c0 21 3f 30 c0 fb 95 b8 c0
       -2.8816478 -3.1876533 -2.753853 -5.768308
000190 7b 96 e1 3e b6 e8 d5 bf a1 5f 22 c0 f0 5d 99 c0
       0.4406012 -1.6711643 -2.5370867 -4.792717
0001a0 e0 07 53 c0 80 d2 bc c0 0a a5 88 bf a1 b8 4f c0
       -3.2973557 -5.900696 -1.0675366 -3.2456439
0001b0 53 0f 9d c0 39 b6 5a c0 6b 16 a1 c0 76 03 fe bf
       -4.9081206 -3.417372 -5.0339866 -1.9844806
0001c0 2e c2 b0 bf ab 64 82 c0 66 5a f0 bf 9b e5 a8 c0
       -1.3809259 -4.0747886 -1.8777587 -5.278028
0001d0 d0 ba de bf b7 4c 07 c0 0c 71 15 c0 a2 97 14 c0
       -1.7400761 -2.1140573 -2.3350248 -2.321755
0001e0 65 93 cf bf e1 84 13 c0 6c 31 cd 3e f5 d0 0c c0
       -1.6216856 -2.3049853 0.40076768 -2.2002537
0001f0 ca 05 d1 bf 2f 0b 73 bf c9 fe d7 bd 55 92 05 c0
       -1.6329892 -0.9493894 -0.10546643 -2.0870564
000200 66 02 90 c0 02 ef 8b c0 5f e9 cd c0 d0 32 2d c0
       -4.500293 -4.3729258 -6.4347377 -2.7062263
000210 e0 46 51 c0 b1 54 55 c0 6b c4 3a be 19 df 4d c0
       -3.2699509 -3.3332942 -0.1823899 -3.2167418
000220 f7 6d f1 bf e2 03 8e c0 78 5f 28 bf 56 49 3a c0
       -1.8861684 -4.437974 -0.65770674 -2.910726
000230 b4 34 49 40 12 96 4d 3e 30 61 5e 40 0d 72 9b bc
       3.1438417 0.20076779 3.4746819 -0.018975282
000240 20 5d 48 c0 bc 4a 16 bf 4e e7 35 c0 3f 7e 06 c0
       -3.130684 -0.58707786 -2.8422427 -2.1014555
000250 a4 19 46 3f f7 c3 c6 be fe ac c5 be da 1b a0 be
       0.77382874 -0.38821384 -0.38608545 -0.3127125
000260 0c 7e 5d 3e ac 12 90 c0 14 e7 28 c0 ac c4 c7 c0
       0.21630114 -4.5022793 -2.639104 -6.242758
000270 49 06 f0 be c8 05 eb bf 10 78 3e 3f f3 b0 b7 bf
       -0.46879795 -1.8361139 0.7440195 -1.4350876
000280 d7 48 92 be c6 66 4a bf 54 5d ad bf f8 6c b7 bf
       -0.28571197 -0.7906307 -1.3544106 -1.433013
000290 8a 91 e8 3f d1 2e 83 c0 f5 d8 07 bf ab f7 ea bf
       1.8169415 -4.099465 -0.53065425 -1.8356832
0002a0 58 b2 3d c0 3d b4 ed 3e b3 2d 9e c0 56 47 b2 3e
       -2.9640102 0.46426573 -4.9430785 0.3482005
0002b0 04 90 1a c0 02 e4 13 c0 9e 73 c9 bf b8 30 3d c0
       -2.41504 -2.3107915 -1.5738409 -2.9560986
0002c0 b3 2c e7 bf f8 5c 16 c0 23 d7 4e c0 be 89 e2 3e
       -1.8060516 -2.3494244 -3.231881 0.44245714
0002d0 97 4f a4 bf bb 9d 89 c0 ce a2 31 c0 6c 20 63 c0
       -1.2836789 -4.300504 -2.7755618 -3.5488539
0002e0 89 82 08 c0 7c b4 ba c0 78 41 97 c0 e7 e6 94 c0
       -2.1329672 -5.834532 -4.726742 -4.6531863
0002f0 17 ce 4a c0 a2 fe 6d bf ca d2 59 c0 b8 f9 21 c0
       -3.1688287 -0.92966664 -3.4034905 -2.5308666
000300 62 38 af bb 37 10 4a bf a5 86 07 bf 0a c8 25 c0
       -0.0053472975 -0.7893099 -0.52939826 -2.5903344
000310 52 6f 9d 3e 10 2a 74 bf 20 fa e7 bf d1 ed 30 bf
       0.30748993 -0.9537668 -1.8123207 -0.6911288
000320 05 31 03 bf 89 39 9f c0 fb 93 b0 bf 11 db 3b bf
       -0.5124667 -4.9757733 -1.379516 -0.73381144
000330 82 8e 84 c0 3f d2 2d c0 ad a1 19 c0 87 db 39 c0
       -4.142396 -2.7159574 -2.400493 -2.904024
000340 01 ad 3f c0 d8 d9 10 3f ce e4 0a 3f e6 db e9 bf
       -2.9949343 0.56582403 0.5425538 -1.8270233
000350 d4 f0 ef bf 31 c1 e2 be f0 ff 39 c0 92 2c aa bf
       -1.874537 -0.44288018 -2.9062462 -1.3294852
000360 57 39 c3 bf f0 39 5c c0 5a 09 48 c0 2c 5a bb bf
       -1.5251874 -3.4410362 -3.1255708 -1.4636893
000370 f1 db 8b be e8 2a 35 c0 ea c9 05 bf 87 7d aa c0
       -0.2731624 -2.8307438 -0.5226122 -5.327823
000380 81 b2 39 c0 f9 30 4a c0 fa 67 06 c0 66 f4 01 bf
       -2.90152 -3.159239 -2.1000962 -0.5076355
000390 17 78 8a c0 07 ef 54 bf 54 9d 25 c0 d6 27 0b c0
       -4.3271594 -0.83177227 -2.5877275 -2.1743064
0003a0 6e 77 0b c0 d7 66 94 c0 51 41 40 c0 be 8e 9b c0
       -2.1791644 -4.6375537 -3.0039866 -4.8611746
0003b0 f3 1f 56 c0 b1 6e 9f 3d 20 01 09 c0 f9 6e ee be
       -3.3457 0.077847846 -2.1406937 -0.4656904
0003c0 73 e9 33 c0 4f 21 2e bf 87 7d 5d 3f 8a 6d 0d c0
       -2.8111236 -0.68019575 0.86519665 -2.2098107
0003d0 8b 3b 00 c0 dc cd c2 c0 40 b4 af c0 3e 26 7e c0
       -2.0036342 -6.0876293 -5.490753 -3.971084
0003e0 a5 ab b3 c0 1f de 51 c0 74 b1 09 3e ba 17 0f c0
       -5.6147027 -3.2791822 0.13446599 -2.2358232
0003f0 00 f5 82 3e ed 99 0b c0 95 54 65 c0 c4 63 3a c0
       0.25577545 -2.18127 -3.5832875 -2.9123392
